pose_classifier.onnx (onnx, 27012 bytes, 6 tensors)

model.0.weight f4 [64, 34]
0	0x3cdb2d33	0.026754951
1	0xbe51fff8	-0.205078
2	0xbddeef86	-0.10885529
3	0xbe8a9126	-0.27063864
4	0x3ce01944	0.027355798
5	0xbe150113	-0.14551191
6	0x3e238136	0.15967259
7	0xbd9140da	-0.070924476
8	0xbc8d7349	-0.017266886
9	0xbe30926b	-0.17243354
10	0xbdebc6a4	-0.11512497
11	0xbcbbfa9e	-0.022946652
12	0xbe35c422	-0.177506
13	0xbdc808b7	-0.09767287
14	0x3da750f6	0.08169739
15	0xbda49da6	-0.080378816
16	0x3e0a1091	0.13482882
17	0xbe312d48	-0.1730243
18	0x3d93f18c	0.07223806
19	0x3deafdd0	0.11474192
20	0x3dfa8721	0.12232805
21	0x3e035d3b	0.12828533
22	0x3db73aef	0.089467876
23	0xbe2e3957	-0.17014061
24	0xbdb8c40a	-0.090217665
25	0xbe684f0e	-0.22686407
26	0x3cb21136	0.021736722
27	0x3d87f85e	0.06639169
28	0x3e813e35	0.25242773
29	0x3d833cba	0.06408067
30	0x3daf5e13	0.08562865
31	0xbdba8397	-0.0910713
32	0x3da21ef6	0.079160616
33	0xbcab2dc0	-0.020895839
34	0xbb54fe7d	-0.003250032
35	0x3e01b591	0.12666918
36	0xbe36b685	-0.17843063
37	0xbdde76ee	-0.10862528
38	0x3d2cd8c3	0.042198908
39	0xbd285a44	-0.04110171
40	0xbab65f48	-0.0013913894
41	0x3cc74dde	0.024329122
42	0xbe0d2d1f	-0.13786744
43	0xbdf98006	-0.12182622
44	0xbd6dd72a	-0.058066525
45	0xbe207500	-0.15669632
46	0xbd63c308	-0.05560592
47	0x3e1f589b	0.15561144
48	0x3d2ed5c6	0.04268434
49	0xbd86d157	-0.06582897
50	0x3e5f0cbd	0.21782203
51	0xbddcbecc	-0.10778579
52	0x3e4355ef	0.1907575
53	0x3e041b9e	0.1290116
54	0xbe4c5d72	-0.19957522
55	0xbd48cf8b	-0.049026053
56	0xbdceb5d4	-0.10093275
57	0x3b96b782	0.0045995126
58	0x3caf9afe	0.02143621
59	0xbe39e6d7	-0.18154465
60	0xbe13b669	-0.14425053
61	0xbcc2be70	-0.023772448
62	0x3e7b5055	0.24542363
63	0x3e1730eb	0.14764754
64	0x3d7ea1d1	0.06216604
65	0x3e0cf517	0.1376537
66	0x3d59bf8c	0.05316119
67	0x3e4d10e7	0.20025979
68	0xbc9d4fda	-0.019203115
69	0xbe40737b	-0.18794052
70	0x3cf2e1d2	0.029648695
71	0xbe28ad84	-0.16472441
72	0xbcf705e0	-0.030154169
73	0xbe02ab42	-0.12760642
74	0x3cb7cfc9	0.022437947
75	0xbe1ecdc9	-0.15508188
76	0x3a946c10	0.0011323709
77	0xbef63616	-0.4808814
78	0x3d448350	0.04797679
79	0xbd38aad2	-0.045084782
80	0xbcff35a1	-0.031153502
81	0x3e4a80bd	0.19775672
82	0xbe0b3f97	-0.13598476
83	0x3e1d1e89	0.1534368
84	0xbca9008d	-0.020630145
85	0x3c70693f	0.01467353
86	0xbd3f6ab3	-0.046732616
87	0x3e460429	0.19337524
88	0x3d9cf49c	0.07663843
89	0xbded13df	-0.11576056
90	0x3e481e47	0.195428
91	0x3c17abbf	0.009257256
92	0x3db17d19	0.086664386
93	0xbd814ce1	-0.063134916
94	0x3d46faab	0.0485789
95	0x3d81f733	0.06345978
96	0x3e0c356c	0.13692254
97	0xbbeafadc	-0.007171018
98	0x3e2fadc5	0.17156132
99	0xbcc0a7e4	-0.023517556
100	0xbdb775f8	-0.08958048
101	0x3d8027ab	0.06257566
102	0x3e04a533	0.12953644
103	0x3d4b0d75	0.04957338
104	0x3ca1ac1e	0.019735392
105	0xbe3c4042	-0.18383887
106	0xbc26f4d0	-0.010190204
107	0xbefad7d0	-0.48992777
108	0xbd9c9650	-0.07645857
109	0x3e129337	0.1431397
110	0x3e0aa6d5	0.13540204
111	0x3e235f67	0.15954362
112	0xbe95a9cd	-0.2923111
113	0x3dd42908	0.103593886
114	0xbd733ff5	-0.059387166
115	0x3dd2ec4b	0.102989756
116	0x3d333d9d	0.04375993
117	0xbe6d9530	-0.23201442
118	0xbcf9740b	-0.030450841
119	0xbc724232	-0.01478629
120	0x3e0500d3	0.12988596
121	0x3def09bf	0.11671781
122	0xbe2a3c1a	-0.1662449
123	0xbe8daad9	-0.2766941
124	0xbde18d1a	-0.11013241
125	0x3dafe717	0.08588999
126	0xbd9cd65e	-0.07658075
127	0x3e450da4	0.19243485
128	0xbcc97668	-0.024592593
129	0x3ded3db9	0.11584038
130	0xbdc00f08	-0.09377867
131	0x3dd602b8	0.10449737
132	0xbdf4e921	-0.11958528
133	0x3c1e045b	0.009644593
134	0xbdb9d041	-0.090729244
135	0xbd1b6aae	-0.037943535
136	0xbe1fb872	-0.15597704
137	0xbe42bc3d	-0.1901712
138	0xbd6930be	-0.05693125
139	0xbca39dbc	-0.019972675
140	0x3e4a9415	0.19783051
141	0xbd9266c7	-0.071485095
142	0xbd8c9c13	-0.06865706
143	0xbe776568	-0.24159777
144	0xbe45444a	-0.19264331
145	0xbe1a407a	-0.15063658
146	0x3d59876e	0.05310767
147	0xbd087dd4	-0.033323124
148	0x3d73def7	0.059538808
149	0x3e17b258	0.14814126
150	0xbe163190	-0.14667344
151	0xbc9a3faf	-0.018829195
152	0xbde45757	-0.11149471
153	0xbd40d0d2	-0.047074147
154	0x3dd26b2b	0.10274347
155	0x3e1ad4cd	0.1512024
156	0x3d8065e8	0.06269437
157	0x3d7b78ac	0.06139438
158	0x3e34f762	0.17672494
159	0xbde6409e	-0.112427935
160	0x3e0d6672	0.13808611
161	0xbe315ace	-0.17319795
162	0x3d1efc5a	0.03881488
163	0x3c5172e5	0.012783741
164	0x3c9f7d4f	0.019468931
165	0xbcb10a30	-0.021611303
166	0x3e44b36a	0.19209066
167	0xbd82c541	-0.063852794
168	0x3e03b4c4	0.12861925
169	0x3c06c7bd	0.008226332
170	0x3cc63a89	0.024197834
171	0x3e17cf5d	0.14825197
172	0x3d78251d	0.06058227
173	0xbd1284bf	-0.035771128
174	0xbe2265bb	-0.1585912
175	0x3e431128	0.19049513
176	0x3e08479f	0.13308571
177	0xbd12afc6	-0.035812162
178	0x3d767e04	0.06017877
179	0xbe22225e	-0.15833423
180	0x3e6de75a	0.23232785
181	0xbe001ed9	-0.12511767
182	0x3c8973f2	0.01677892
183	0x3d067aef	0.032832082
184	0xbde0021e	-0.10937904
185	0x3e2b7a86	0.16745958
186	0xbdb0e3a2	-0.086371675
187	0x3d9e62ce	0.07733689
188	0x3e0648b6	0.13113675
189	0xbca113a7	-0.019662691
190	0xbe27a1e0	-0.16370344
191	0x3e2ff1e0	0.17182112
192	0x3d65a298	0.056063265
193	0x3e06a138	0.13147438
194	0xbd7d924d	-0.0619071
195	0x3e1ad3bf	0.15119837
196	0xbdb68f7d	-0.08914087
197	0xbdc039bb	-0.09386011
198	0x3d4d815a	0.050172187
199	0xbce38920	-0.027775347
200	0x3de750e3	0.11294725
201	0x3d1a4c92	0.03767068
202	0xbd1b3bf8	-0.037898988
203	0x3d25fd57	0.040524807
204	0xbe39706e	-0.18109295
205	0xbdf90ab8	-0.121602476
206	0x3d3d2e24	0.04618658
207	0x3d0ee0ed	0.034882475
208	0xbc25cdd3	-0.010119873
209	0xbcdd3336	-0.027001958
210	0xbc696d3e	-0.014247237
211	0x3d1aa90a	0.037758864
212	0xbd2d6099	-0.04232845
213	0xbdd052c7	-0.101720385
214	0xbe57c660	-0.21071768
215	0x3e0d5c0b	0.13804643
216	0x3e0a803c	0.1352548
217	0x3e642933	0.22281341
218	0x3db2a682	0.08723165
219	0xbe6463ea	-0.22303739
220	0xbe0a071f	-0.13479279
221	0x3dc78d19	0.09743709
222	0x3d2f02b7	0.0427272
223	0x3e18bf6e	0.14916775
224	0xbda61697	-0.081097774
225	0xbe6b0249	-0.2295009
226	0x3c9ca15e	0.019119915
227	0x3e05bfac	0.13061398
228	0xbe03e381	-0.12879755
229	0xbd2b578f	-0.04183155
230	0xbe45003d	-0.19238372
231	0xbdf30285	-0.11865715
232	0x3dfed332	0.12442626
233	0xbdf90e69	-0.12160952
234	0x3e193d9f	0.14964913
235	0x3e4efe80	0.20214272
236	0x3d0cbd8f	0.034360465
237	0x3e53c796	0.20681605
238	0x3d7458c0	0.05965495
239	0x3d63fddb	0.055662017
240	0xbca5d11c	-0.020241313
241	0x3cf53942	0.02993453
242	0xbe01b6af	-0.12667345
243	0x3df781f8	0.120853364
244	0xbe2b488b	-0.16726892
245	0xbde03cc9	-0.10949094
246	0xbd5b7deb	-0.05358688
247	0xbf0ce158	-0.5503135
248	0xbe128aea	-0.14310804
249	0xbdfba09e	-0.12286495
250	0x3e1951b4	0.14972574
251	0x3ca2682f	0.01982507
252	0x3d04e801	0.03244782
253	0x3e36b271	0.17841507
254	0xbd38cce9	-0.045117293
255	0xbb72b2eb	-0.0037032913

model.0.bias f4 [64]
0	0x3db731e5	0.089450635
1	0xbda04d32	-0.07827224
2	0xbc3d16bf	-0.011541068
3	0x3e3d281a	0.18472329
4	0x3cb82530	0.02247867
5	0xbdf3130f	-0.118688695
6	0xbdb6fae6	-0.08934574
7	0xbc1a65c6	-0.009423679
8	0x3c7ef493	0.015561241
9	0xbe0d1c65	-0.13780363
10	0x3e2b8b8b	0.1675245
11	0xbd861afd	-0.06548116
12	0x3e295574	0.16536504
13	0xbe16107b	-0.14654724
14	0x3e4eafff	0.20184325
15	0x3c85f0b0	0.01635012
16	0xbd41ba69	-0.047296915
17	0xbd82f74d	-0.06394825
18	0xbe0294c4	-0.12752062
19	0x3e0c2301	0.13685228
20	0xbd42007a	-0.047363736
21	0xbc9ed197	-0.01938705
22	0xbdeaec86	-0.114708945
23	0x3d7d3a4c	0.061823174
24	0x3e254d60	0.16142797
25	0x3dc76a3c	0.097370595
26	0x3e0c2cfd	0.13689037
27	0x3d4021c1	0.04690719
28	0x3dc49d99	0.09600372
29	0xbdea3ec8	-0.11437756
30	0x3e205d2a	0.1566054
31	0x3cf21451	0.029550703
32	0x3e490357	0.1963018
33	0xbda4b51a	-0.08042355
34	0xbe0bd7de	-0.13656566
35	0xbdb8a51d	-0.09015868
36	0x3c8fca6a	0.017552573
37	0xbd9fbfe0	-0.07800269
38	0xbdc991b3	-0.09842243
39	0xbde43be9	-0.111442395
40	0xbd438c38	-0.047741145
41	0x3d8d299a	0.068927005
42	0xbca97631	-0.02068624
43	0x3e02cc8f	0.12773345
44	0xbd80fc8d	-0.0629817
45	0xbe25e933	-0.1620224
46	0xbcc1b33c	-0.023645036
47	0xbd9d7133	-0.07687607
48	0x3dedcaa7	0.116109185
49	0xbe1a8669	-0.15090336
50	0x3d84d3b3	0.06485691
51	0xbe1401cf	-0.14453815
52	0x3e3bd802	0.18344119
53	0x3dfa9f7e	0.12237452
54	0x3e2ccd43	0.16875176
55	0xbd6bf44f	-0.057606038
56	0x3d59c951	0.053170506
57	0xbdbff75c	-0.09373352
58	0x3de46056	0.11151187
59	0xbe58b06a	-0.21161047
60	0xbcffe3fa	-0.031236637
61	0x3db7bcbd	0.08971546
62	0x3e60adcb	0.21941297
63	0xbe19b5b7	-0.15010725

model.3.weight f4 [64, 64]
0	0x3e9fbee3	0.31200323
1	0x3e067299	0.13129653
2	0x3e7a5138	0.24445045
3	0x3e066de9	0.13127865
4	0x3e87f06d	0.26550618
5	0x3d95f366	0.07321815
6	0x3e5671ae	0.20941803
7	0x3e699073	0.22809009
8	0x3e9caf00	0.30602264
9	0x3e8421fc	0.25807178
10	0x3d714870	0.058906972
11	0x3ddeadc7	0.10872989
12	0x3bec5101	0.007211805
13	0x3e5c714f	0.21527599
14	0x3eed85e7	0.46391222
15	0xbdd16906	-0.1022511
16	0x3eba345c	0.36368072
17	0x3d94ef93	0.07272258
18	0xbdffa6d2	-0.1248299
19	0x3aa2369b	0.0012375893
20	0x3e94ce7a	0.2906378
21	0x3e64543d	0.2229776
22	0xba4a1500	-0.0007708818
23	0xbb560280	-0.0032655299
24	0x3e9331bc	0.28748882
25	0x3c41defd	0.01183295
26	0xbd21b4f9	-0.03947923
27	0x3e76d99f	0.24106453
28	0x3df351da	0.11880846
29	0xbd271bdc	-0.040798053
30	0x3e4ff488	0.20308125
31	0x3d79879e	0.06092035
32	0x3dcdfefe	0.100584015
33	0xbd9dc9a6	-0.07704477
34	0x3d57142f	0.052509483
35	0x3dae6118	0.08514613
36	0xbe0abb25	-0.13547952
37	0x3d447c0c	0.047969863
38	0x3c4295f6	0.011876574
39	0x3e4d0511	0.20021464
40	0x3d8d9b04	0.069143325
41	0x3d81caec	0.063375324
42	0x3dbe90c7	0.09304958
43	0x3c94d2a0	0.01816684
44	0xbddf631e	-0.10907577
45	0x3d933736	0.07188265
46	0x3e60dcfb	0.21959297
47	0x3caecfbc	0.02133929
48	0x3ed08ed1	0.4073396
49	0x3dcb7df7	0.09936135
50	0xbd7c2665	-0.061560053
51	0x3e17437f	0.14771841
52	0xbd108f63	-0.035292994
53	0xbdc5a44c	-0.09650478
54	0x3cc115f0	0.02357003
55	0x3c8e8cbc	0.017401092
56	0x3d67ea36	0.056619845
57	0x3d813808	0.06309515
58	0x3e920bff	0.28524777
59	0x3e8a5be3	0.2702323
60	0x3a05abab	0.0005099128
61	0xbcba3f6d	-0.022735322
62	0x3ea96157	0.33082077
63	0x3ead256b	0.3381761
64	0xbe8b20c1	-0.27173427
65	0xbe01272c	-0.12612599
66	0xbe573a57	-0.21018349
67	0xbe83848e	-0.2568707
68	0xbd9c030b	-0.07617768
69	0x3e30a77f	0.17251395
70	0x3ab24aaa	0.0013602574
71	0xbc380d0c	-0.011233579
72	0xbdea343b	-0.114357434
73	0xbe934231	-0.28761438
74	0x3dd4860e	0.103771314
75	0xbd9afdda	-0.075679496
76	0x3dd455d5	0.10367934
77	0xbe35013f	-0.17676257
78	0xbe504ba2	-0.20341352
79	0x3d41c664	0.04730834
80	0xbe18bf06	-0.1491662
81	0xbe15ad8f	-0.14616989
82	0xbd8e4f40	-0.069487095
83	0x3e20a800	0.15689087
84	0xbe245ca0	-0.16050959
85	0xbe5c611f	-0.21521424
86	0xbdca8814	-0.09889236
87	0x3ddbdcaa	0.10735448
88	0xbe82e110	-0.25562334
89	0xbd003094	-0.031296328
90	0x3e332e2a	0.17498079
91	0xbdaa38a9	-0.08311588
92	0x3e130f3e	0.14361283
93	0xbcf686c8	-0.030093566
94	0xbe85a2d3	-0.26100788
95	0x3d3fde01	0.04684258
96	0x3e08897f	0.133337
97	0x3d9a6646	0.07539038
98	0x3db33f53	0.087523125
99	0xbd5fa888	-0.054604083
100	0x3de44a02	0.11146928
101	0xbbc26d60	-0.0059334487
102	0x3aafe14e	0.0013418586
103	0xbe93a646	-0.28837794
104	0xbd9cb40a	-0.07651527
105	0xbd355700	-0.044272423
106	0xbe280a9a	-0.16410294
107	0x3d4bb6d9	0.049734924
108	0xbcffe030	-0.03123483
109	0xbdd17e94	-0.10229221
110	0xbe344a50	-0.17606473
111	0xbe05479a	-0.13015595
112	0xbe41aed9	-0.18914355
113	0xbe28848f	-0.16456817
114	0x3daf21ab	0.085513435
115	0xbe018efd	-0.12652202
116	0x3dba5e13	0.090999745
117	0x3caa5310	0.02079156
118	0x3e58943d	0.21150298
119	0x3da5d4f9	0.08097262
120	0x3e72daa4	0.23716217
121	0xbe32dd87	-0.17467318
122	0xbe45a7a4	-0.19302231
123	0xbe8931b1	-0.26795724
124	0x3e3619ab	0.17783229
125	0xbd238f1f	-0.039931413
126	0xbeb4c728	-0.35308194
127	0xbe932d48	-0.28745484
128	0xbea3e135	-0.32007757
129	0xbe0f40ce	-0.13989565
130	0xbdb5eeec	-0.08883461
131	0xbe1896d2	-0.14901283
132	0xbe15a44b	-0.14613454
133	0x3d5efde5	0.05444135
134	0xbd7ac96c	-0.061227247
135	0x3c6e5f27	0.014549053
136	0xbe97455f	-0.29545113
137	0xbe8d863a	-0.2764147
138	0x3d3d86e8	0.046271235
139	0x3b9e13fc	0.0048241597
140	0x3daf81a6	0.0856965
141	0xbe01f6a8	-0.12691748
142	0xbe6a8fe7	-0.22906457
143	0x3d8eef92	0.06979288
144	0xbe64eeb9	-0.2235669
145	0xbe2388fc	-0.15970224
146	0xbd39e924	-0.045388356
147	0x3e490cee	0.19633839
148	0xbe0dc20a	-0.13843551
149	0xbe5cc191	-0.21558215
150	0x3de7ed04	0.11324504
151	0xbbc065e0	-0.0058715194
152	0xbe7aa791	-0.24477984
153	0x3e033559	0.1281332
154	0x3d6e1f55	0.05813535
155	0xbc80f074	-0.015739657
156	0x3e241d05	0.16026695
157	0xbdf3fc12	-0.11913313
158	0xbdf674fc	-0.12034032
159	0x3da8b495	0.08237568
160	0x3e4adcb0	0.19810748
161	0x3b709580	0.0036710203
162	0x3d978f55	0.07400385
163	0xba7c4100	-0.0009622723
164	0xbdd77466	-0.10520248
165	0xbdb9be90	-0.0906955
166	0xbc322870	-0.010873899
167	0xbdd5e140	-0.10443354
168	0xbe3c9b84	-0.184187
169	0x3c9d24c0	0.019182563
170	0xbd8c9d7e	-0.06865977
171	0xbd1e07dd	-0.038581718
172	0xbcaaac30	-0.020834059
173	0x3d34132c	0.043963596
174	0xbe465a80	-0.1937046
175	0xbdbd9219	-0.092563815
176	0xbe2ebeb5	-0.17064936
177	0xbe674571	-0.22585084
178	0x3d8bdfd1	0.06829799
179	0xbe6122fa	-0.21985999
180	0x3e3d846b	0.18507545
181	0xbd6c2678	-0.057653874
182	0x3e259184	0.16168791
183	0xbdbf0976	-0.093279764
184	0x3e596c40	0.212327
185	0xbd46acde	-0.048504703
186	0xbcf8175c	-0.030284576
187	0xbe185aad	-0.1487834
188	0x3e2c38c9	0.16818537
189	0x3e0cd421	0.13752796
190	0xbea703a9	-0.3261998
191	0xbe525465	-0.20540006
192	0xbe53b0df	-0.2067294
193	0xbe7e34b3	-0.2482479
194	0xbdeb1c18	-0.11479968
195	0xbe771cd9	-0.24132098
196	0xbe2e8534	-0.17043
197	0xbd13dd3e	-0.036099665
198	0x3ce1da6a	0.027569968
199	0xbd8c55e8	-0.06852323
200	0xbe5a88ed	-0.21341296
201	0xbe868315	-0.26271883
202	0xbdf69f4c	-0.12042102
203	0xbe1bb921	-0.1520734
204	0x3df032ed	0.11728463
205	0xbdb1a861	-0.08674694
206	0xbe9900c1	-0.29883388
207	0x3c9fb100	0.01949358
208	0xbe3b07ee	-0.18264744
209	0xbe1eff40	-0.15527058
210	0x3dd3ee24	0.10348156
211	0x3e015f3d	0.12633987
212	0xbe950331	-0.29103997
213	0xbd47d89f	-0.04879057
214	0x3d956c7e	0.07296084
215	0x3dfd5302	0.12369348
216	0xbe9328fd	-0.2874221
217	0x3d872517	0.06598871
218	0x3e3a5d4c	0.18199652
219	0xbe454209	-0.19263472
220	0x3e1c2938	0.15250099
221	0x3dfd8b30	0.123800635
222	0xbe9da917	-0.30793068
223	0x3e1d4d29	0.15361466
224	0x3ddac051	0.10681213
225	0xbdfaf3fc	-0.122535676
226	0x3d4c4ba8	0.04987684
227	0x3d547fa0	0.051879525
228	0x3dd63e34	0.10461083
229	0x3ca7b570	0.020472258
230	0x3e457b1b	0.19285242
231	0xbe40785c	-0.18795913
232	0xbdcf28df	-0.101152174
233	0x3db87fc4	0.09008744
234	0xbe03e6f6	-0.12881073
235	0xbdef0c5f	-0.116722815
236	0x3ca95c00	0.020673752
237	0xbda232ac	-0.07919821
238	0xbdc40e12	-0.09572996
239	0xbd9490b9	-0.07254166
240	0xbe613019	-0.21991004
241	0xbe42ff1d	-0.1904263
242	0x3dbeabe6	0.09310131
243	0xbd349fbc	-0.044097647
244	0x3e47d095	0.19513161
245	0xbd0103dc	-0.03149782
246	0x3dfbecdd	0.123010375
247	0x3d3a1fc3	0.045440447
248	0x3c0a09d9	0.008425199
249	0xbe67d442	-0.22639564
250	0xbe69f725	-0.22848184
251	0xbe2411e8	-0.16022456
252	0x3d510a63	0.051035296
253	0x3ddfae75	0.10921947
254	0xbe7d40c8	-0.24731743
255	0xbe9a7c5b	-0.30173

model.3.bias f4 [64]
0	0xbde50114	-0.11181846
1	0x3e8366b2	0.25664288
2	0x3e328ce9	0.17436565
3	0x3e60f0b5	0.21966822
4	0xbc4c2d11	-0.012461917
5	0xbd400271	-0.04687733
6	0x3e983bc4	0.29733098
7	0xbdb16ae8	-0.08662969
8	0xbdeb6ffd	-0.114959694
9	0x3e6063cc	0.2191307
10	0x3c2ad58e	0.010426892
11	0x3d56a100	0.052399635
12	0xbce6989b	-0.02814894
13	0xbd4a9336	-0.049456798
14	0x3e318e3b	0.17339413
15	0x3e2647c4	0.16238314
16	0x3bdb4368	0.006691385
17	0x3c897a08	0.016781822
18	0xbd24870c	-0.040167853
19	0xbdeb6f46	-0.11495833
20	0x3e4def55	0.20110829
21	0xbde7eb8d	-0.113242246
22	0xbdd5c64d	-0.104382135
23	0x3e8510ae	0.25989288
24	0xbd6d6b33	-0.05796356
25	0x3e3340c8	0.17505181
26	0xbe3961b5	-0.18103679
27	0xbcd0ad37	-0.02547322
28	0x3e4e31a8	0.2013613
29	0x3c31e51e	0.010857848
30	0xbd2d5941	-0.042321447
31	0xbddf63b1	-0.109076865
32	0xbd8894a9	-0.0666898
33	0x3e733b62	0.23753121
34	0x3e35ea5a	0.1776518
35	0x3ddbf653	0.10740342
36	0x3e9284d1	0.28616956
37	0x3e8826a2	0.26591974
38	0xbd1bedbf	-0.03806853
39	0xbdf6fecb	-0.12060317
40	0xbc719e0f	-0.014747157
41	0xbdf4aba1	-0.11946798
42	0x3e836dec	0.256698
43	0x3d08bb19	0.033381555
44	0x3cca31ba	0.024681915
45	0xbc0688b6	-0.008211305
46	0x3e7e65fa	0.24843588
47	0xbd8f63d9	-0.07001466
48	0xbdd9c80b	-0.10633858
49	0x3c873339	0.016503917
50	0x3e7b4883	0.2453938
51	0xbd6f5973	-0.058434915
52	0x3e86a08e	0.26294369
53	0xbe0f35be	-0.13985345
54	0xbda3eadc	-0.0800378
55	0xbd9642c8	-0.07336956
56	0xbd20204c	-0.0390933
57	0xbdac4ff8	-0.0841369
58	0xbd0a1ef8	-0.03372094
59	0x3e7f37fa	0.24923697
60	0x3dff379e	0.1246178
61	0xbd1508de	-0.03638541
62	0x3df13e5f	0.117794745
63	0x3e399d6f	0.18126462

model.5.weight f4 [2, 64]
0	0xbe4260e6	-0.18982276
1	0x3e4ab4cf	0.19795536
2	0x3e0bb171	0.13641907
3	0x3e96a5f9	0.29423502
4	0xbe32c91a	-0.17459527
5	0x3d8fc799	0.07020492
6	0x3e844982	0.25837332
7	0xbeadc2f4	-0.339378
8	0xbecb8af1	-0.3975444
9	0x3e808f77	0.25109455
10	0xbe861ede	-0.26195425
11	0xbeb5e620	-0.35527134
12	0xbe44619c	-0.1917786
13	0xbe8d0a5a	-0.2754696
14	0x3e51545c	0.20442337
15	0x3e216141	0.15759756
16	0xbe959708	-0.2921679
17	0xbe962e98	-0.29332423
18	0xbeae5303	-0.34047708
19	0xbe922c3f	-0.28549382
20	0x3e3d5a5f	0.18491505
21	0xbd4c320b	-0.049852412
22	0xbec9fc11	-0.39450124
23	0x3e677245	0.22602184
24	0xbe8c6bc4	-0.2742597
25	0x3e6bd828	0.23031676
26	0xbe9c9d48	-0.30588746
27	0xbe1c411e	-0.15259215
28	0x3eb24010	0.348145
29	0xbda0167d	-0.07816789
30	0xbe45382f	-0.19259714
31	0xbeb3d97f	-0.35126874
32	0xbea2bf32	-0.31786495
33	0x3e966616	0.2937476
34	0x3dbc288f	0.091874234
35	0x3e7229a1	0.23648693
36	0x3e87e768	0.26543736
37	0x3e1b9732	0.15194395
38	0xbe75438e	-0.23951551
39	0xbeb4c923	-0.35309705
40	0xbe935aaa	-0.2878011
41	0xbeb79b6e	-0.3586077
42	0x3e6fa7fb	0.23403923
43	0xbe8c6312	-0.27419335
44	0xbe98c04e	-0.29834217
45	0xbe088cdc	-0.13334984
46	0x3e2def50	0.16985822
47	0xbe939d07	-0.2883074
48	0xbec461b7	-0.383558
49	0xbe889172	-0.26673466
50	0x3eafb976	0.34321183
51	0xbe9d29ad	-0.3069586
52	0x3e747d1b	0.23875849
53	0xbeb08a71	-0.34480622
54	0x3d119a53	0.035547566
55	0xbed20880	-0.4102211
56	0xbd446b4f	-0.0479539
57	0xbe67c655	-0.22634251
58	0xbe26c318	-0.1628536
59	0x3e352ba1	0.17692424
60	0x3e789e1f	0.24279068
61	0xbe6aa423	-0.22914176
62	0xbeb4e9f9	-0.35334757
63	0x3ebbc1e1	0.36671355
64	0x3eb6fe49	0.3574088
65	0xbe8ac096	-0.27100056
66	0xbe894f59	-0.2681835
67	0xbe77364d	-0.24141808
68	0x3e976a76	0.2957341
69	0xbbf9693f	-0.0076114233
70	0xbe67f544	-0.22652155
71	0x3e71068d	0.23537655
72	0x3e4e52d2	0.20148781
73	0xbe86456d	-0.26224843
74	0x3e4251f8	0.18976581
75	0x3ec07472	0.3758884
76	0x3e809c85	0.25119415
77	0x3e9a5f8b	0.30151019
78	0xbea967e7	-0.33087084
79	0xbe98e126	-0.29859275
80	0x3e856180	0.2605095
81	0x3e93b708	0.2885058
82	0x3e228c5f	0.1587386
83	0x3e844ed6	0.25841397
84	0xbe71cb45	-0.23612697
85	0x3ccb45a8	0.024813488
86	0x3e7640b1	0.24048115
87	0xbe5724fb	-0.210102
88	0x3e7f1b2b	0.24912708
89	0xbea7f69e	-0.3280534
90	0x3e80c841	0.25152782
91	0x3e6ce391	0.23133685
92	0xbe8e95a5	-0.27848545
93	0x3cb5f109	0.022209661
94	0x3ece265f	0.4026365
95	0x3e9cc114	0.30616057
96	0x3e9cdf11	0.30638936
97	0xbe972168	-0.29517674
98	0xbe8dc876	-0.27692002
99	0xbe6dbe39	-0.23217095
100	0xbe9429dc	-0.28938186
101	0xbe949cc2	-0.29025847
102	0x3e9c9089	0.30579022
103	0x3e2bf843	0.16793923
104	0x3e8e1412	0.27749687
105	0x3e6921c5	0.22766788
106	0xbec713e6	-0.3888237
107	0x3e25a0dc	0.16174644
108	0x3e92ac53	0.28647098
109	0x3eb9bad0	0.3627534
110	0xbe96dfc0	-0.29467583
111	0x3e648229	0.22315277
112	0x3ea1a0b3	0.31567916
113	0x3e809937	0.25116894
114	0xbe9f994b	-0.3117164
115	0x3e8976c6	0.2684843
116	0xbebfd490	-0.3746686
117	0x3eacd90a	0.33759338
118	0xbdb2313d	-0.08700798
119	0x3eab839c	0.33498847
120	0xbd8184a2	-0.06324126
121	0x3e8c1917	0.27362892
122	0x3ea9cbc8	0.33163285
123	0xbe9f7e28	-0.31150937
124	0xbe5b3ae1	-0.2140918
125	0x3e9360e8	0.2878487
126	0x3eeb9fa7	0.46020243
127	0xbebf9133	-0.37415466

model.5.bias f4 [2]
0	0x3bf02f80	0.007329881
1	0xbe2684b2	-0.16261557
